DQNpara.pth (torch, 48895 bytes, 25 tensors)

FeatureModel.hidden1.weight f4 [25, 25]
000000 0d 4f f6 bd 07 c5 13 3e 2b ca 27 be ba 39 b6 3d
       -0.120267965 0.14430629 -0.16385715 0.08897729
000010 58 55 67 bd f7 d2 a9 bd 5d 89 23 be 80 49 1d bd
       -0.056477875 -0.082921915 -0.15970369 -0.038400173
000020 93 a2 36 be b8 95 5c bd 72 ab e1 3d 0b 8e 2e 3e
       -0.17835455 -0.05385372 0.11019029 0.17046373
000030 6d 4e 12 be 74 af 1c bd 51 49 34 3e 73 0b 2d be
       -0.1428773 -0.038253263 0.17606093 -0.16898899
000040 c0 38 47 bd 9d 15 a1 bd d5 26 1c be 02 84 1d be
       -0.048638105 -0.078654505 -0.15249188 -0.15382388
000050 a0 7b 8c bb 75 0e 3a 3e 9a d5 c1 bd d8 37 d6 3c
       -0.004287198 0.18169577 -0.094645694 0.026149675
000060 7b 04 0f 3e 00 49 2b be f8 28 53 bd 9a 62 de bd
       0.13966553 -0.16727066 -0.051552743 -0.108586505
000070 55 d7 48 be 89 56 32 3e 6c 49 0d bd 82 b7 2c be
       -0.19613393 0.17415823 -0.03449385 -0.16866878
000080 66 3c fe 3d 72 fe 87 3d b2 89 8e 3d c1 d0 00 3e
       0.12413864 0.066403285 0.06959857 0.12579633
000090 da 35 89 bd 4d 03 c8 bd 00 67 f6 ba 75 8e 3f be
       -0.066997245 -0.097662546 -0.0018799007 -0.18706687
0000a0 38 4c 1f bd c0 8b 12 bd 9d 06 24 be aa e8 ca 3d
       -0.038891047 -0.035777807 -0.16018148 0.099076584
0000b0 c4 bb 78 3d 4b 88 2d 3e 00 d5 01 3a e2 9f f6 3d
       0.060725942 0.16946523 0.0004952699 0.12042214
0000c0 c0 94 19 be a8 83 b5 3c 62 c3 26 be 3f 93 27 3e
       -0.1499815 0.022157505 -0.1628547 0.16364764
0000d0 8d 3a 23 be 6e 37 91 3d 43 8e 1f 3e a0 b9 d7 3b
       -0.15940304 0.070906505 0.15581612 0.0065834075
0000e0 7b 3d 07 3e 95 e7 47 3e 6a d4 ba bd 8d eb f7 bd
       0.13207047 0.19521935 -0.09122546 -0.121054746
0000f0 17 ae a9 bd 82 da 81 3d 45 5b 13 be 5f a1 40 3e
       -0.08285158 0.06340505 -0.14390285 0.18811558
000100 fa c4 13 be 34 46 7a bd 38 71 44 be 02 e3 b0 3d
       -0.1443061 -0.061102107 -0.19183815 0.08637048
000110 c0 94 b9 3b 44 dd 66 3d fd 83 01 be 60 2c 21 bc
       0.0056634843 0.05636336 -0.12648006 -0.00983724
000120 e8 34 f4 bc c0 12 97 bb 1a e2 a4 3d a0 32 0f 3d
       -0.029810384 -0.0046103895 0.08050938 0.03496039
000130 c0 54 58 bd cb b4 13 3e c5 a7 3b 3e ee da a7 3d
       -0.0528152 0.14424436 0.18325718 0.081960544
000140 8e 00 f3 3d 4c 43 27 3d d3 11 f0 bd 79 5b 0a 3e
       0.1186534 0.040835664 -0.1172215 0.13511457
000150 82 ae 8c 3d e8 b0 39 be fb f4 47 be d3 8c f6 bd
       0.06869222 -0.1813389 -0.19527046 -0.12038579
000160 0a 2d ec bd e2 9f 1f be f8 9f 67 bd 49 9b 43 3e
       -0.11532028 -0.15588334 -0.056549042 0.19102205
000170 4d 78 ef bd 8c e1 59 bd a3 fe 3f 3e ed 6d 42 be
       -0.116928674 -0.053193614 0.1874948 -0.18987246
000180 86 a7 d5 3d 03 36 2e 3e cd 64 a3 bd fa 1d 07 be
       0.10432343 0.17012791 -0.079782106 -0.13195029
000190 fa 00 a3 bd 2b 14 06 3e b0 69 b2 3c 93 e7 49 be
       -0.07959171 0.13093631 0.021778911 -0.19717245
0001a0 5b 9a 41 3e 0e 6e 1a be 10 8d cc bd 8e 60 9b 3d
       0.18906538 -0.15081045 -0.09987843 0.07586776
0001b0 0c 57 81 bd 86 53 19 be 33 dc 3e 3e 40 ef 01 bd
       -0.06315431 -0.14973268 0.18638687 -0.031722307
0001c0 16 07 8a 3d 08 26 69 bd e3 d1 30 be 7b 02 3a 3e
       0.06739633 -0.056921035 -0.17267565 0.18165009
0001d0 60 94 33 bd 2a 1f a8 bd ca 63 e5 bd 25 18 4a be
       -0.043842673 -0.08209069 -0.11200674 -0.19735773
0001e0 90 5a f5 3c a8 09 2e 3d 90 d6 d6 3c 40 83 04 be
       0.02995041 0.042489678 0.026225358 -0.12940693
0001f0 c0 05 0c 3d b0 a9 ea bc ed d2 0c be e1 cb 3c 3e
       0.03418517 -0.028645366 -0.13752337 0.18437149
000200 76 a1 84 3d 8a 39 e7 bd 2e 23 e0 3d 20 a9 f7 bd
       0.06476109 -0.112902716 0.1094421 -0.12092805
000210 ec 94 65 bd 00 2d ab 3c e7 42 a9 bd a8 6f 46 be
       -0.056050226 0.020895481 -0.08264714 -0.19378531
000220 3b df 0e 3e 00 03 c1 3a 4b 36 2a be e0 03 30 bd
       0.13952343 0.0014725626 -0.16622274 -0.042972445
000230 c0 93 b3 3b 69 e5 37 3e d0 16 66 3c b7 db 4a be
       0.0054802597 0.17958607 0.014043525 -0.19810377
000240 12 d3 82 3d 00 fe 42 ba e8 81 27 be 20 03 48 bd
       0.06387915 -0.00074383616 -0.16358149 -0.048831105
000250 3b 1e 46 be f0 36 db bd 09 95 05 3e 63 84 2f 3e
       -0.1934747 -0.10703838 0.13045134 0.17140345
000260 d1 02 20 3e 40 d2 aa 3c 50 aa 00 bc c4 de 79 3d
       0.15626074 0.020852208 -0.007853106 0.06100346
000270 34 cf 22 bd 63 b5 cd bd 6d 5c b7 bd 82 b7 ec 3d
       -0.039748386 -0.100443624 -0.08953176 0.11558439
000280 92 fc e2 3d 3d 6a 3e 3e c0 d0 07 bd 60 32 c9 bd
       0.1108333 0.18595214 -0.033158064 -0.098240614
000290 a7 40 1c 3e 68 6e 3c 3d 14 d1 06 3d 70 a2 e5 bd
       0.15259038 0.04600373 0.032914236 -0.11212623
0002a0 80 26 fb ba 20 f1 21 bd 1d b1 e7 bd 2a 9c dd 3d
       -0.0019161254 -0.039536595 -0.113130786 0.108208016
0002b0 09 5b 41 3e 39 32 2a 3e 63 5e 2a 3e e0 d8 04 bd
       0.18882383 0.16620721 0.16637568 -0.03243339
0002c0 f8 33 03 bd d4 10 26 3d af 77 4b be 81 3c 38 3e
       -0.032031983 0.040543392 -0.19869874 0.1799183
0002d0 8c 2e 6c 3d 32 78 2c be ea f9 bd 3d ca 75 c8 3d
       0.057661578 -0.16842726 0.09276183 0.097880915
0002e0 1a e6 28 be 57 d2 f3 bd 48 61 27 be 96 f8 ac 3d
       -0.16494027 -0.119053535 -0.16345704 0.084458515
0002f0 ea 8b 8c 3d 73 d1 33 3e 44 11 93 bd a4 cc 71 3d
       0.06862624 0.17560367 -0.071810275 0.05903305
000300 3e 79 c4 3d 6a 62 c1 bd 67 5e 15 3e 62 55 bb 3d
       0.095934376 -0.09442599 0.14586793 0.09147145
000310 42 5d 90 3d 91 11 45 3e 63 c5 3d be d8 00 55 bd
       0.070490375 0.19244982 -0.18532328 -0.052002758
000320 77 40 bd bd 8b 76 41 3e d0 fd 2b be 5b 74 3f be
       -0.09240811 0.18892877 -0.1679604 -0.1869673
000330 74 7a 61 3d 47 2d e7 bd 40 c1 a4 bd 0a d6 12 be
       0.05504842 -0.11287933 -0.08044672 -0.14339462
000340 4f 9c 4a 3e 1a 79 f9 bd 30 9d 63 3c c6 73 8c 3d
       0.1978619 -0.121813014 0.013892457 0.068580195
000350 10 da 88 bc 12 f3 bd 3d 38 68 0d 3d bd 2c 38 3e
       -0.016705543 0.092748776 0.03452322 0.17985816
000360 cd 15 27 be 70 68 b2 bd 04 ed 90 bd a3 40 f9 bd
       -0.1631691 -0.08711326 -0.07076457 -0.121705316
000370 50 84 4b bc 91 3f 0a 3e 6e 94 22 be 8b 20 1d be
       -0.0124216825 0.13500811 -0.15876934 -0.15344445
000380 3f da 40 3e 22 e3 30 be 3d 07 43 3e 2a f0 1a be
       0.18833254 -0.17274144 0.1904573 -0.15130678
000390 ed b8 1d be e0 52 22 be f6 9a db 3d 5a 52 f5 3d
       -0.15402575 -0.15851927 0.10722916 0.11978598
0003a0 5a 98 ac 3d d6 9f ae 3d b3 57 df bd 70 e1 07 be
       0.08427496 0.0852658 -0.10905399 -0.13269591
0003b0 ea 72 f8 3d fa 50 33 be f5 bc 0e 3e 92 ea 1c be
       0.12131293 -0.17511359 0.13939269 -0.15323856
0003c0 d7 4f 4a be ad e4 1b 3e f4 0b 1b bd 6c 97 53 bd
       -0.19757019 0.15223952 -0.037853196 -0.05165808
0003d0 db 6d 19 3e 60 42 48 bd 00 78 14 be 50 ad 65 bc
       0.14983313 -0.048891425 -0.14498901 -0.014018372
0003e0 fa d3 e5 bd 7d f0 ca bd ba 39 94 bd d0 51 26 be
       -0.11222072 -0.09909151 -0.07237573 -0.16242146
0003f0 a0 59 50 bc db aa 14 3e 18 5f 0b bd 40 65 46 3d
       -0.012716681 0.14518301 -0.034026235 0.048436403

FeatureModel.hidden1.bias f4 [25]
000000 5b 20 03 3e fa 64 f2 3d 91 0b 39 3e dd 76 49 3e
       0.12805311 0.11835666 0.18070818 0.19674249
000010 f5 4c 2a 3e 2a 48 fc 3d 80 be df bd 14 49 7d 3d
       0.1663092 0.12318452 -0.10925007 0.06183727
000020 43 70 0b 3e 14 78 1b 3d a5 1a 47 be a0 f2 e2 bb
       0.13617043 0.037956312 -0.19443758 -0.006925896
000030 90 2f 85 bc b0 a1 90 bd f5 1d 11 3e 22 c9 1a be
       -0.016258031 -0.070620894 0.14171584 -0.15115789
000040 9d 63 f1 bd a6 10 e9 3d e6 93 a6 3d 8d d5 c1 bd
       -0.11786578 0.113801286 0.08133678 -0.0946456
000050 32 0f 09 be ec ba 67 3d ed 45 23 3e f3 0f a0 bd
       -0.13384703 0.056574747 0.15944643 -0.07815542
000060 7e 9b 08 be
       -0.13340566

FeatureModel.hidden2.weight f4 [25, 25]
000000 53 5f 22 be ab 97 47 be 30 93 aa bd 28 70 28 bd
       -0.15856676 -0.1949145 -0.08328855 -0.041122586
000010 c0 75 34 3d 08 b8 32 bd 60 4a 48 3c f0 ba e4 bd
       0.044057608 -0.043632537 0.012224764 -0.11168468
000020 c5 9e 20 be b5 29 32 3e 17 16 a9 bd 80 52 d0 ba
       -0.15685566 0.17398722 -0.082561664 -0.0015893728
000030 b0 52 b2 3c 31 87 40 3e 00 19 d2 bb 75 66 28 3e
       0.021767944 0.18801571 -0.0064116716 0.16445334
000040 80 c6 a9 bc d0 28 f1 bc 6a 59 a2 3d 66 48 cb 3d
       -0.020724535 -0.029438406 0.07927211 0.09925918
000050 fa a9 93 bd e6 03 ae 3d 3a 60 a1 3d ed 5c 40 be
       -0.07210155 0.08496837 0.07879682 -0.18785448
000060 30 0f 52 3c b2 c6 1f be 52 45 b6 3d 60 3a 78 3c
       0.012821004 -0.1560314 0.088999406 0.015150636
000070 33 8e 37 be a0 2e cc 3b 76 f8 aa 3d aa 10 b5 bd
       -0.17925338 0.006231144 0.083481714 -0.08841069
000080 00 9e 73 bb 50 d9 ed bd b0 5c 09 3c 64 71 5e 3d
       -0.0037173033 -0.11613715 0.008383915 0.054307356
000090 98 5c 9c bc fa ed d7 3d 16 6f 93 3d 88 7a 3a be
       -0.01908712 0.10543437 0.07198922 -0.18210804
0000a0 d7 b5 30 be a0 31 2f be f7 82 32 be 01 93 28 3e
       -0.17256866 -0.17108774 -0.17432772 0.16462328
0000b0 a8 ed 0e be 33 9d 11 be f1 3d 3e 3e 5d f8 40 be
       -0.13957846 -0.14220123 0.18578316 -0.18844743
0000c0 ce f3 2a be 0d 8d c4 bd c5 23 2d be f4 d5 48 bd
       -0.16694567 -0.09597216 -0.16908176 -0.049032167
0000d0 0d c1 cd bd b7 4a dc bd d9 9b 0f 3e d0 8b a3 bd
       -0.10046587 -0.10756438 0.14024295 -0.079856515
0000e0 cc b3 54 bd 0a a3 dd bd 17 40 9f bd 06 be 12 be
       -0.05192928 -0.10822113 -0.07775896 -0.143303
0000f0 4a 36 0a be 7a a9 83 3d c1 f4 11 3e ed 6b 2f 3e
       -0.13497272 0.064288095 0.14253522 0.17131014
000100 27 58 30 be 98 65 89 bc 89 90 34 3e 74 91 0b 3d
       -0.17221127 -0.016772076 0.17633261 0.03407426
000110 43 e0 04 3e 53 3b ab bd 8e b6 c9 3d 2c 63 33 3d
       0.12976174 -0.083609246 0.09849273 0.04379575
000120 d0 f6 0e 3c da dc 2c be 4c 5f 65 3d a0 f8 b3 bd
       0.008725837 -0.16881123 0.055999085 -0.08787656
000130 18 c9 32 be 99 ee 0c 3e 31 c8 1f 3e d8 1f 4b be
       -0.17459524 0.13762893 0.1560371 -0.19836366
000140 9b 02 15 be 90 6f f5 bc e0 77 11 3c 1d bf 36 be
       -0.14551775 -0.029960424 0.008878678 -0.17846341
000150 d0 68 aa bd 21 f7 05 3e 99 36 2a 3e 48 f9 14 be
       -0.08320773 0.13082553 0.1662239 -0.14548218
000160 e7 d6 d6 bd 38 7f 3a be df 1d 3e be 14 de 22 bd
       -0.10490208 -0.18212593 -0.18566082 -0.03976257
000170 b5 a1 49 3e fa 49 f9 3d 10 5e e6 3c 01 6e 16 3e
       0.19690593 0.12172313 0.028121024 0.146904
000180 27 73 17 3e ae 81 b2 3d aa 97 a1 3d fa b6 0b be
       0.14790021 0.08716141 0.07890256 -0.13644019
000190 45 cc 0e 3e 18 b4 b1 bc d4 34 2b bd d3 58 46 3e
       0.1394511 -0.02169232 -0.041798428 0.19369821
0001a0 20 c3 07 3d bb 8f 44 3e 77 b4 9a bd dd 56 f8 bd
       0.03314507 0.19195454 -0.07553952 -0.12125943
0001b0 03 a3 11 3e 6e f3 cc 3d ce 83 1b be a8 ef 12 be
       0.1422234 0.10007368 -0.15186998 -0.14349234
0001c0 36 37 25 be 60 3a 67 bd ba 9d 8e 3d 3b 19 2d 3e
       -0.16134343 -0.056452155 0.06963678 0.16904156
0001d0 c8 6a 73 bd 60 81 95 bd ca 72 25 be cc b9 6e bd
       -0.059428006 -0.07300067 -0.1615707 -0.05828266
0001e0 4d c7 a9 bd 00 7a 06 bc 1a 7f ac 3d 13 4a ad bd
       -0.08289967 -0.008207798 0.0842268 -0.08461394
0001f0 02 ad ea 3d bd 3f 22 3e b6 40 99 3d 80 21 e0 bc
       0.1145878 0.15844627 0.07483046 -0.027359724
000200 74 91 6f bd 1b 79 10 3e fe 1d 1b be 94 2c 0a bd
       -0.058488324 0.14108698 -0.1514816 -0.03373392
000210 30 02 f2 bc 9a fb d0 3d 00 fd 5b 3a a4 29 7c 3d
       -0.029542059 0.10204239 0.0008391887 0.06156315
000220 54 72 03 be b4 7a 5f 3d d4 b6 4a bd 21 d6 1b 3e
       -0.12836581 0.05456038 -0.049490765 0.15218402
000230 73 59 1a be 81 6f 27 3e ae 34 12 be b2 1e e9 3d
       -0.15073185 0.16351129 -0.14277908 0.11382808
000240 28 57 4b 3d 37 22 d9 bd 4e d0 e5 3d a7 16 e4 bd
       0.049643666 -0.10602229 0.112213716 -0.11137133
000250 00 bb d9 ba 00 b2 7f bd 60 39 e3 bd 13 cc 40 3e
       -0.0016611516 -0.062425613 -0.11094928 0.18827848
000260 78 5a 20 bd 57 a5 46 3e 43 ee 05 3e 34 18 31 3d
       -0.039148778 0.1939901 0.13079171 0.043235973
000270 22 03 d9 3d f6 bd 8e 3d 11 ed 20 3e c0 53 01 3d
       0.10596301 0.06969826 0.15715434 0.03157401
000280 93 2b 34 3e 60 64 ff bb 30 ae 28 be 93 95 23 3e
       0.17594747 -0.007793948 -0.16472697 0.15975027
000290 4a 95 e7 bd 31 0a 24 3e a0 8b b7 bd 60 92 75 3c
       -0.113077715 0.16019513 -0.08962178 0.014988512
0002a0 a3 2d 35 3e a2 a2 97 3d 30 0e 5d 3c 80 50 b3 bd
       0.1769319 0.074040666 0.013492152 -0.087555885
0002b0 3f 96 27 3e dd 87 45 3e 85 f9 15 3e 0d 18 ca bd
       0.16365908 0.19290109 0.14645965 -0.098678686
0002c0 c0 24 41 bb eb 15 3b be fb b8 26 3e 3f 02 20 3e
       -0.0029471368 -0.1827008 0.16281502 0.15625857
0002d0 e0 d7 14 bc 95 4f 15 be dd fc 35 be 66 66 08 be
       -0.009084672 -0.1458114 -0.17772241 -0.13320312
0002e0 40 d6 42 bd 00 6a c9 39 88 09 27 bd 53 7a 9b bd
       -0.047567606 0.00038416684 -0.040780574 -0.07591691
0002f0 c7 24 4b 3e 87 ea ce bd cd 05 df bd 54 38 23 3d
       0.19838248 -0.10103326 -0.10889778 0.03984864
000300 c0 24 b5 bc 45 f7 0c be 11 55 13 3e da d5 83 3d
       -0.02211225 -0.13766201 0.14387919 0.06437273
000310 21 b0 19 3e 28 ad eb bc 62 36 ca 3d 00 a6 17 bb
       0.15008594 -0.02876909 0.09873654 -0.0023139715
000320 00 34 a1 3b 52 20 45 be ae 78 91 3d 20 4f 2d 3d
       0.004919529 -0.1925061 0.07103096 0.042311788
000330 b0 fd 2c bc 97 79 f5 bd 28 9d 9e bc 00 e6 10 3d
       -0.010558531 -0.11986082 -0.019362047 0.035375595
000340 e6 1f c7 3d 1a ee bb 3d 00 7c 2c be 75 a5 26 be
       0.09722881 0.09176274 -0.16844177 -0.16274054
000350 2b 60 27 3e db 97 1a be ad 4f ed bd f0 20 aa 3c
       0.16345279 -0.15096991 -0.115874626 0.020767659
000360 c9 a3 19 3e f2 e6 c5 3d c4 0a 6d 3d ed 69 4a 3e
       0.15003885 0.0966319 0.057871595 0.1976697
000370 f5 86 4a 3e e0 83 56 bd eb 8e 3f be d0 96 a4 bc
       0.19778045 -0.05237186 -0.18706863 -0.020091444
000380 b9 23 07 3e c8 40 43 bd e7 a1 f4 bd 14 1e 49 bd
       0.13197221 -0.047669202 -0.11944943 -0.04910095
000390 78 ab 03 bd 4c 56 33 3d e3 17 d4 bd 34 38 21 bd
       -0.032145947 0.04378347 -0.103561185 -0.03936024
0003a0 e2 1c e9 3d 2d 17 f9 bd 98 16 cd 3c eb 37 21 be
       0.11382462 -0.121626236 0.025035188 -0.15743987
0003b0 e8 86 0e bd 60 72 4a 3d c0 5a 22 bb 8e 85 e7 3d
       -0.034796625 0.049425483 -0.002477333 0.113047704
0003c0 4d 7c cf bd d6 1a b9 3d a9 21 13 3e 35 1e 34 be
       -0.1013113 0.09038322 0.14368309 -0.17589648
0003d0 8e ce bb 3d 0b 00 1a 3e 0a c2 81 3d 1e e3 eb 3d
       0.091702566 0.15039079 0.06335838 0.115179285
0003e0 a0 c9 56 3c 26 ff dd 3d 3f 2e 40 be c4 b9 04 be
       0.013109595 0.10839681 -0.18767641 -0.12961489
0003f0 4c 44 91 bd ed dd 1d be d0 d3 29 be c8 7b 1f be
       -0.07093105 -0.15416689 -0.16584706 -0.15574563

FeatureModel.hidden2.bias f4 [25]
000000 26 81 b8 3d 2c e0 6b 3d f0 28 46 be 97 92 bf bd
       0.09009008 0.057586834 -0.19351554 -0.09354132
000010 1e 9f bb 3d 1d 36 32 be 1d 2f 06 be 56 18 f1 3d
       0.091612086 -0.17403455 -0.1310391 0.1177222
000020 66 84 d9 3d 0e bd 80 3d 4a 9b dd 3d 80 a2 9a bc
       0.10620956 0.06286059 0.10820635 -0.018876314
000030 61 f4 0f 3e c6 9f 8f 3d 90 bd e8 bd 18 59 e0 bc
       0.14058067 0.07012896 -0.11364281 -0.027386233
000040 9b 37 21 be 9a 0a 02 be 11 34 49 3e 80 86 cd ba
       -0.15743868 -0.12699357 0.19648768 -0.0015680343
000050 c2 6d 24 be 0d 6c b5 bd 30 ab 40 bc fe 35 b1 3d
       -0.16057494 -0.088585 -0.011759564 0.08652876
000060 c6 15 bd 3d
       0.092326686

FeatureModel.output.weight f4 [25, 25]
000000 d2 b1 f4 3d d3 9f 1c be 80 7c 16 bd ee a5 29 be
       0.11947979 -0.15295343 -0.036739826 -0.16567203
000010 51 85 0a 3e ec e3 26 3d eb 66 1e 3e 80 5f 30 bb
       0.13527419 0.040744707 0.15468948 -0.0026912391
000020 aa 6e bd 3d da 6c 43 be bb b3 28 be c6 4d a3 3d
       0.09249623 -0.19084492 -0.16474812 0.079738185
000030 be e5 f8 3d 89 db 00 3e 88 ab 20 bd 92 c0 a5 3d
       0.12153195 0.12583746 -0.039226085 0.080933705
000040 e0 41 4a bc 2a cd 85 bd 12 49 f4 3d 1d 1b b8 bd
       -0.012344807 -0.065332726 0.119279996 -0.089895464
000050 a7 77 b1 bd 60 7d 4d 3c f8 e3 07 be 05 b6 4a be
       -0.086654 0.012542099 -0.13270557 -0.19795997
000060 0d f0 a5 bd 35 ad 40 be 21 12 23 3e 0c 73 09 bd
       -0.08102427 -0.18816073 0.15924884 -0.033556983
000070 c3 69 dd bd cc 96 22 3d f9 cc 40 3e e3 fc 27 be
       -0.10811188 0.039694592 0.18828191 -0.16405062
000080 42 34 94 3d f1 0d 25 3e 51 36 26 3e 00 0d 38 bc
       0.0723653 0.161186 0.16231658 -0.011233568
000090 39 59 3d 3e 87 18 0e 3e c3 4c 9b bd be 6e 1d be
       0.18491067 0.13876544 -0.075830005 -0.15374276
0000a0 42 41 e2 3d a0 a7 bc bd 2d a2 15 be b0 3c 22 be
       0.11047603 -0.092116594 -0.14612646 -0.15843463
0000b0 b7 e8 2c be 12 43 de 3d 9b f7 12 3e fd e5 ac bd
       -0.16885649 0.108526364 0.14352266 -0.08442304
0000c0 60 c1 ca 3b a0 47 62 3c 00 ba 93 bc 3b 1f 15 be
       0.006187603 0.013811022 -0.018033028 -0.14562695
0000d0 5a 57 bd bd 16 01 f9 3d bf 1c 20 3e 94 36 33 bd
       -0.092451766 0.1215841 0.15635966 -0.04375322
0000e0 44 61 95 bd 9e d4 c4 3d ab ba 11 be da 17 a1 bd
       -0.072939426 0.09610866 -0.14231364 -0.078658774
0000f0 4e 7f ad 3d 7d 6e a3 bd c0 04 3c be 8b 1d 32 be
       0.08471547 -0.07980058 -0.18361187 -0.17394082
000100 85 70 1d be 2a 49 92 3d 34 e9 6d bd a0 64 02 bd
       -0.15374954 0.07142861 -0.058083728 -0.031834245
000110 54 e2 14 bd 10 34 b1 3c 39 e2 1e 3e 52 77 35 be
       -0.036348656 0.02163127 0.15515985 -0.17721298
000120 a4 f1 56 3d 31 5b 1b 3e ca 9b f8 3d 38 08 79 bd
       0.05247654 0.15171506 0.121390894 -0.060798854
000130 20 88 8e bd 26 9d aa 3d ca 6d 06 be 3b fb 22 3e
       -0.069595575 0.08330755 -0.13127819 0.1591615
000140 cd 95 b3 bd 55 e7 47 be 9b 12 41 be c4 e3 78 3d
       -0.087688066 -0.1952184 -0.18854754 0.06076409
000150 d4 a4 28 bd 98 d5 3f 3d f2 6e 2f be 13 4c 1f 3e
       -0.041172817 0.04683456 -0.17132166 0.15556364
000160 2a 32 3e be e8 77 33 be a0 28 fc bb c9 d8 32 3e
       -0.18573824 -0.1752621 -0.0076952726 0.1746551
000170 93 4b 0f be f3 3a d9 bd 64 12 67 3d 4e 58 03 be
       -0.13993673 -0.10606947 0.056414023 -0.12826654
000180 b5 69 01 be f2 18 bd 3d 05 e3 35 3e d1 47 1b 3e
       -0.1263798 0.092332736 0.17762382 0.15164115
000190 18 78 45 be 88 48 57 bd a2 b6 fc 3d 3d d9 b2 bd
       -0.19284093 -0.052559406 0.12339522 -0.08732841
0001a0 00 aa 04 ba 83 c0 1e 3e e8 74 8e 3c a0 fc e3 bd
       -0.00050607324 0.15503125 0.01738973 -0.11132169
0001b0 a9 40 13 3e 82 d2 ed 3d a3 28 d1 bd 88 34 27 be
       0.14380135 0.11612417 -0.10212829 -0.16328633
0001c0 62 b0 d5 3d c0 2d f4 bc c2 71 96 3d 17 b4 bb bd
       0.10434033 -0.029806972 0.07345916 -0.09165209
0001d0 73 e5 b7 bd 46 c1 17 be 96 fc 9c 3d e9 af 34 3e
       -0.08979311 -0.14819822 0.076653644 0.1764523
0001e0 b6 fa d3 3d 67 73 20 3e bd 4a 1e 3e 60 b8 cc bd
       0.10350554 0.15669023 0.15458198 -0.09996104
0001f0 c0 6f ed bd 63 b6 cb bd 58 9c 6c bd 22 93 b5 3d
       -0.1159358 -0.09946897 -0.05776629 0.08865954
000200 a2 dd ad 3d 80 34 02 bc fd e5 14 3e 08 71 69 bd
       0.08489539 -0.007947087 0.14540859 -0.05699256
000210 60 01 84 bb c8 17 2a bd c0 4b 85 bc 98 92 af 3c
       -0.004028484 -0.041526586 -0.016271472 0.021432206
000220 c0 ab e8 bd 12 0c 40 be d4 6b 8e bd b8 8d 6b bd
       -0.11360884 -0.18754604 -0.0695416 -0.0575082
000230 2c 62 16 3d 13 94 f8 bd 61 35 4a 3e 7e 94 20 be
       0.036714718 -0.12137618 0.19746925 -0.15681645
000240 58 2b 5c bd 28 fc 00 be 0e 41 03 be 00 a9 c3 ba
       -0.053752273 -0.1259619 -0.12817785 -0.0014927685
000250 18 3e 16 be 3f 78 44 be 6e e2 bc 3d 1d c4 44 3e
       -0.14672124 -0.19186495 0.092228755 0.19215436
000260 92 f8 85 3d 09 28 2f 3e 32 63 27 be 85 41 1b 3e
       0.06541552 0.17105116 -0.16346434 0.15161712
000270 47 5d b3 bd e0 2f a4 bd 2a 10 e7 3d 1a 3e a0 bd
       -0.087580256 -0.08016944 0.1128238 -0.07824345
000280 74 f5 39 3d 73 77 bd bd ac b2 59 bd d2 a2 b5 3d
       0.045400098 -0.09251299 -0.05314891 0.08868946
000290 f8 a6 06 3d d2 3f 10 be 7a ef 01 be 98 e3 4b 3d
       0.032874078 -0.14086846 -0.1268901 0.049777597
0002a0 40 79 ce bc d0 0b 4f 3c 89 7e 34 3e 9a c3 17 be
       -0.0252043 0.012637094 0.17626394 -0.1482071
0002b0 f9 8b 10 3e 92 88 e0 3d 9d f9 48 be 69 4f 28 3e
       0.14115895 0.10963549 -0.1962647 0.16436543
0002c0 10 c7 23 be d2 89 fd 3d 15 4d 3d 3e b8 43 39 bd
       -0.15993905 0.12379803 0.18486436 -0.045230597
0002d0 cd ae aa bd 9e 4d f1 3d cc 64 2e 3d e1 5f 49 3e
       -0.08334122 0.117823824 0.042576596 0.19665481
0002e0 ca eb d0 3d 14 bb 0a be 67 71 b7 bd 68 28 98 3c
       0.10201223 -0.13547927 -0.08957177 0.018573955
0002f0 4b 3b 0d 3e a0 82 89 bd cd 3f 22 3e 01 67 24 3e
       0.1379215 -0.06714368 0.1584465 0.16054918
000300 60 88 60 bd db 00 32 3e d2 49 b5 3d f2 ea d9 3d
       -0.054817557 0.17383139 0.08851971 0.106405154
000310 19 ac 23 3e f0 0c 97 3c fd d7 06 3e f7 64 4b be
       0.15983619 0.018438786 0.1316833 -0.19862734
000320 6d 77 cf bd ca b7 bb 3d 58 c9 fd 3c bf 77 28 3e
       -0.101302005 0.09165914 0.030979797 0.1645193
000330 9a ae 90 3d 10 46 a9 3c d9 a5 1d 3e 49 61 01 3e
       0.070645526 0.020663291 0.15395297 0.12634768
000340 40 91 8b bd d6 40 15 be 90 fb 33 be 94 a1 97 bd
       -0.068148136 -0.14575514 -0.17576432 -0.074038655
000350 5d ae b1 bd 20 ad 31 be f3 1b 2c be e2 72 46 be
       -0.08675835 -0.17351198 -0.16807537 -0.19379762
000360 8e f4 19 be 98 0e 46 bd 38 ff 35 3d b0 94 09 bc
       -0.15034696 -0.04835376 0.04443285 -0.008397266
000370 47 f6 9c bd cc ae 79 bd 8a 92 b1 bd a2 ea ee 3d
       -0.07664161 -0.060957715 -0.08670528 0.116658464
000380 a5 3a 49 3e d2 96 b7 3d c0 a5 ba bd 50 08 c5 3c
       0.19651277 0.089643136 -0.091136456 0.024051815
000390 bb 54 3e be 40 52 fc 3c c9 16 32 3e 08 81 1e be
       -0.1858701 0.030800939 0.17391504 -0.15478909
0003a0 f0 5a c1 3c 2e 01 db 3d 00 45 3c be 77 52 23 3e
       0.023602933 0.106935844 -0.18385696 0.15949427
0003b0 98 68 1a bd e0 e0 06 3c 67 a4 27 3e 8e 0c cb 3d
       -0.037697405 0.008232325 0.16371308 0.09914504
0003c0 c2 73 8b 3d 83 08 fe bd e7 35 36 3e 79 3a 16 3e
       0.068091884 -0.12403967 0.17794 0.14670743
0003d0 a8 c3 d2 bc 71 1b 10 3e 42 77 b6 3d 04 48 7a 3d
       -0.025728062 0.14072968 0.089094654 0.061103836
0003e0 fa 10 bb bd 00 4b ba 3a 75 88 1c be 60 e5 8b 3b
       -0.091340974 0.0014213026 -0.15286429 0.004269287
0003f0 28 ef a9 3c 80 4c 61 bd 8d 32 45 3e 7e 42 c8 3d
       0.020743921 -0.055004597 0.19257565 0.097783074

FeatureModel.output.bias f4 [25]
000000 5e 28 85 3d 22 76 1b be 2f 60 27 3e 92 76 cf 3d
       0.0650184 -0.15181783 0.16345285 0.10130037
000010 3d 22 c8 bd 09 d4 26 3e d3 f0 fe bd fa af e8 bd
       -0.097721554 0.16291822 -0.12448277 -0.1136169
000020 00 2a 26 3c 30 7c 5e 3c 73 39 2c be c0 a6 3e 3b
       0.0101418495 0.013579413 -0.1681879 0.002909109
000030 60 20 cc bb 30 c8 c1 3c 5b 66 38 3e ae 35 e0 3d
       -0.0062294453 0.023655027 0.18007796 0.109477386
000040 33 c1 38 3e f0 d8 e0 bd 57 51 09 3e 71 69 25 3e
       0.1804245 -0.109788775 0.13409935 0.16153504
000050 f7 a7 3a 3e fa fb 34 be 98 a6 f8 3c 26 92 df 3d
       0.18228136 -0.17674246 0.030352876 0.109165475
000060 06 19 e8 3d
       0.11332898

FeatureModel.gru.weight_ih_l0 f4 [75, 25]
000000 c6 ca 97 bd 70 87 98 bc 5a 24 a5 3d 56 c1 d7 3d
       -0.07411723 -0.01861927 0.08063574 0.10534923
000010 5d c3 fc bd 0f 02 3a be 80 b3 1b bb a8 85 19 3d
       -0.1234195 -0.18164848 -0.0023758113 0.03748098
000020 55 ac 22 3e c4 07 03 be b4 1d 04 bd 0b 89 49 be
       0.15886052 -0.12795931 -0.03225489 -0.19681184
000030 48 cb 06 bd 86 1b 98 3d e2 9b e0 3d d0 dc 7b 3c
       -0.032908708 0.07427125 0.10967232 0.01537247
000040 c0 23 2f 3d e9 f4 06 3e 02 c9 a8 3d 00 e2 f9 3c
       0.042758703 0.13179363 0.08241464 0.030503273
000050 29 61 26 3e 42 73 2d be ca 01 9f 3d 54 ff 56 bd
       0.16248001 -0.16938499 0.07764013 -0.052489594
000060 4c 67 3d bd 4c 3a 00 3d c4 1b 86 bd 6d df af bd
       -0.04624109 0.031305596 -0.065482646 -0.08587537
000070 09 b9 2a 3e e0 d2 0c 3d 30 58 6f bc 1f bc 45 be
       0.16672148 0.034380794 -0.014608428 -0.19310044
000080 f8 7e 27 be fd 3d b1 bd 60 74 7c 3c 57 b3 4a be
       -0.16357028 -0.086544015 0.015408605 -0.19794975
000090 ca eb 02 be c4 cb 7e 3d 15 64 1e be 50 2f a7 3c
       -0.12785259 0.062206045 -0.15467866 0.020408303
0000a0 12 47 9c 3d dd 31 a2 bd af ef 25 3e 50 e2 cf bc
       0.07630743 -0.07919667 0.16204713 -0.025376469
0000b0 59 56 1c 3e 02 90 e1 3d 9c d4 94 bd a1 2f 39 3e
       0.15267314 0.110137954 -0.072671145 0.18084575
0000c0 93 e0 14 be d7 95 38 3e 98 a7 45 be 94 fb 01 3d
       -0.14538793 0.1802591 -0.19302213 0.031734064
0000d0 ad a4 17 be 56 5b 14 be 20 13 7e bd 89 1d 09 3e
       -0.14808913 -0.14487967 -0.062029958 0.13390173
0000e0 57 72 a7 bd c0 7e b6 bb 05 1a 40 be 8a 79 8e bd
       -0.081761055 -0.005569309 -0.18759926 -0.069567755
0000f0 54 9a 1c bd 40 82 bb bb a2 cd b9 3d 0d 4e 31 be
       -0.038233116 -0.005722314 0.090724245 -0.1731493
000100 6c 50 75 bd 30 7d b0 3c f8 36 27 bd b0 3f 64 bc
       -0.05989115 0.021544069 -0.040823907 -0.0139312
000110 c6 f9 e5 3d f3 37 3b be 95 0f 4c 3e d2 85 c6 3d
       0.11229281 -0.18283062 0.19927819 0.09693493
000120 86 df ce 3d 84 e8 5c 3d 74 76 4e bd 92 16 41 be
       0.101012275 0.05393268 -0.050405934 -0.18856266
000130 d8 d3 86 3c 50 f7 1c bc b0 2f 2f 3c 6e 1b 06 be
       0.016458437 -0.009580448 0.010692522 -0.13096401
000140 f1 5f 0b 3e 5a 92 01 be 78 04 6d bd a0 77 49 bc
       0.13610817 -0.12653485 -0.05786559 -0.012296587
000150 0f c1 47 be 6e 9f 95 3d d8 3b 28 3d 90 5c f0 bd
       -0.1950724 0.073057994 0.041072696 -0.11736405
000160 da a7 aa bd de 74 0c be 0a 0d 9c bd b2 56 bd 3d
       -0.083327964 -0.13716456 -0.076196745 0.092450514
000170 12 5f bb 3d 80 3c f9 bc 1d d8 4a 3e 54 06 40 3d
       0.091489926 -0.030424356 0.19809003 0.046881035
000180 b4 55 83 bd d2 e1 c4 3d dd 24 ff bd a4 18 54 3d
       -0.06412831 0.09613384 -0.12458203 0.05178131
000190 b0 c7 31 bc b0 ba 69 3c 1a 9a 3b be 30 d2 56 bc
       -0.010850832 0.014265701 -0.18320504 -0.013111636
0001a0 c0 02 95 bb 73 ea dc bd 50 cb a8 3c 03 40 e0 bd
       -0.004547447 -0.10786905 0.02060476 -0.10949709
0001b0 34 e1 39 3d 92 0d 8b 3d 8a 29 05 be 00 78 a2 bb
       0.045380786 0.06789698 -0.13004127 -0.004958153
0001c0 c0 cb fa bc 9b 27 4a be 98 a3 05 bd da eb 29 be
       -0.030614734 -0.19741671 -0.03262672 -0.16593876
0001d0 ba 07 b2 3d 65 10 39 3e 2c fc 8e bd f6 ba 8e 3d
       0.0869288 0.1807266 -0.06981692 0.06969254
0001e0 13 ee 2a be 13 d5 12 be 22 b4 8c 3d 0a 82 c8 3d
       -0.1669238 -0.14339094 0.06870295 0.09790428
0001f0 ee bf 8f 3d a7 9a 02 3e ee fc 1b be c0 82 e8 bd
       0.070190296 0.12754308 -0.15233204 -0.113530636
000200 47 18 e3 bd e9 02 48 3e 68 62 6f bd 94 7d 4e bd
       -0.11088615 0.1953236 -0.058443457 -0.05041273
000210 0c c0 70 bd 38 a0 22 3d b0 b6 d0 bd d4 7e 6b bd
       -0.0587769 0.039703578 -0.10191095 -0.057494
000220 47 41 26 3e 6a 85 32 be c6 6b 98 bd 94 19 8e bd
       0.16235839 -0.17433706 -0.07442431 -0.069384724
000230 16 a0 d2 3d 22 d7 c9 3d cc 1e 67 3d dd 84 bf bd
       0.1028444 0.098554865 0.056425855 -0.093515135
000240 4d 23 27 be b1 f6 39 3e c2 a8 dc 3d 13 49 4a 3e
       -0.1632206 0.18160512 0.107743755 0.19754438
000250 a3 9f b1 bd b2 33 9b 3d ca a6 c0 3d ab 76 40 3e
       -0.086730264 0.075782195 0.094068125 0.18795268
000260 90 61 0a be 50 bf f3 bc 63 c8 33 3e a8 c1 21 bd
       -0.1351378 -0.02975431 0.1755691 -0.039491326
000270 66 47 e9 3d e8 85 70 bd e3 07 38 be 6e e1 06 be
       0.11390571 -0.058721453 -0.17971759 -0.13171932
000280 76 1d 05 be ae b5 e1 3d 6c e0 43 3d 21 55 34 3e
       -0.1299952 0.11020981 0.047821447 0.17610599
000290 ab c6 4c be e0 fe 51 3c 4e 62 f9 3d 3d 56 d6 bd
       -0.19997661 0.012817115 0.12176953 -0.104656674
0002a0 68 eb 4e bd 68 8e 30 3d 72 76 ba 3d fe a0 0a be
       -0.05051747 0.04310456 0.09104623 -0.13537976
0002b0 00 76 c5 3b b2 c2 82 3d 2a 40 93 bd 70 5b bc 3c
       0.0060260296 0.063847914 -0.07189973 0.02299282
0002c0 4f f2 4b be a6 f3 e1 3d 12 59 d0 3d cc 9c 05 bd
       -0.19916652 0.110328004 0.10173239 -0.032620236
0002d0 19 8a 17 3e 00 05 87 bd 2a 0e ea 3d b0 37 e7 3c
       0.14798774 -0.065927505 0.11428483 0.028224796
0002e0 49 57 03 3e 98 34 82 bc bd a7 3d 3e 0f 52 41 3e
       0.12826265 -0.01589422 0.18521018 0.18878959
0002f0 f7 04 37 be 9e 95 0a be de d9 26 be db b7 24 3e
       -0.17872988 -0.13533637 -0.16294047 0.1608576
000300 c0 95 89 bc 40 4e 82 3b 3a 8c ef bd 6c f2 33 bd
       -0.01679504 0.0039766133 -0.11696668 -0.043932363
000310 30 02 ad 3c 5f a0 30 3e 68 5b 20 be 82 ef 8e 3d
       0.021119207 0.17248677 -0.15659869 0.06979276
000320 16 0b 8f 3d 72 02 94 3d a8 77 83 bc 6c 82 3e 3d
       0.06984536 0.07227029 -0.016048267 0.0465111
000330 cb 6f 46 3e 2c 8d 43 3d d0 09 58 bc 90 f5 ee bd
       0.19378583 0.047742054 -0.013185933 -0.11667931
000340 0d 41 e4 bd af cf 2e be a3 2e 45 3e 60 87 84 3b
       -0.1114522 -0.17071413 0.19256072 0.0040444583
000350 9a 68 f4 bd 2a c0 c4 3d 4d 1a ee bd c7 61 a3 bd
       -0.11934014 0.09606965 -0.1162611 -0.07977634
000360 40 87 ab 3c b8 11 14 bd cd bb e6 bd 1f 3b 37 be
       0.020938516 -0.03614971 -0.11266289 -0.17893647
000370 a2 38 a6 3d c4 06 4d 3d 80 77 e1 bc 80 7a ce 3c
       0.081162706 0.05005528 -0.027522802 0.025204897
000380 80 1b 94 3c e2 02 19 be 3e d7 b5 3d 00 3f 8b bd
       0.01807952 -0.14942506 0.08878945 -0.06799126
000390 b6 40 28 be 82 89 1a be fa 93 f9 bd 6f 95 36 3e
       -0.16430935 -0.15091518 -0.121864274 0.17830442
0003a0 4c f3 78 3d e9 0f 1d 3e 6a 8f 93 3d 34 55 1c bd
       0.0607789 0.153381 0.072050884 -0.038167194
0003b0 61 44 2e 3e 32 16 be 3d de cc 02 be 00 7f e7 bd
       0.17018272 0.09281577 -0.12773463 -0.1130352
0003c0 00 33 e9 bc ad ba 0d be 80 09 76 bb 41 ad 39 3e
       -0.028466702 -0.13840742 -0.0037542284 0.18132497
0003d0 98 f2 3b 3d 70 33 c2 bc e2 ba e1 3d aa 0e e9 3d
       0.045885652 -0.023706168 0.11021973 0.1137975
0003e0 ee a0 8a 3d 0a 4f df bd 96 3f 98 3d 09 52 02 3e
       0.06768976 -0.109037474 0.07434003 0.12726606
0003f0 d4 45 0a 3d 74 b8 7e 3d a0 cd 67 bd 28 32 1d 3d
       0.033758 0.062187627 -0.056592584 0.03837791

FeatureModel.gru.weight_hh_l0 f4 [75, 25]
000000 7b a3 0d 3e cb 41 05 3e ca bf 14 be a2 b4 ec 3d
       0.13831894 0.1301338 -0.14526287 0.115578905
000010 ee ac b6 3d 00 5b 85 bd e0 a0 14 3d 95 e8 19 be
       0.089197025 -0.065114975 0.036286235 -0.15030129
000020 18 e8 f5 3c ac e1 79 3d 74 94 42 3d 6e be e3 3d
       0.030017897 0.061006233 0.047504857 0.11120306
000030 80 fd 63 bb 00 b7 3c 3c 92 c2 da 3d 60 99 27 bd
       -0.003478855 0.01151824 0.106816426 -0.040917754
000040 63 5f e7 bd bb 70 14 3e c0 d4 11 3d bd 0c d2 bd
       -0.112974904 0.14496128 0.035603285 -0.10256336
000050 ff cd 03 3e 4d 30 2f 3e f0 96 3b be 80 5a 6e 3b
       0.1287155 0.17108269 -0.18319297 0.003636986
000060 b9 84 07 3e 98 50 2c bd 2d c8 22 be b2 69 e7 3d
       0.13234223 -0.042069048 -0.15896674 0.11299457
000070 b8 1a 0d be 7d 15 18 3e 70 d9 e8 bd 77 7e c0 bd
       -0.13779724 0.14851947 -0.11369598 -0.09399121
000080 00 ed 4a bd 1c 8b 95 bd 7c 12 50 3d ea 5e ea bd
       -0.049542427 -0.07301924 0.050798878 -0.11443885
000090 76 4c c3 3d 6b 59 31 be 72 a5 cb 3d ba a4 f5 3d
       0.09536068 -0.17319266 0.099436656 0.1199431
0000a0 80 46 45 bd 9b 14 1f be f8 37 1e 3d ab 9a 2c be
       -0.048162937 -0.15535204 0.038627595 -0.16855876
0000b0 03 cc 4b be 32 46 b7 3d e0 9f 3b be 2a bf ef bd
       -0.19902043 0.089489356 -0.18322706 -0.117063835
0000c0 18 f8 06 3d 69 73 02 3e f1 c8 0d 3e 48 48 4c bd
       0.032951444 0.12739338 0.13846184 -0.04987362
0000d0 da 66 15 be 53 ab 0a 3e 98 4c 16 3d d0 ee 43 bc
       -0.14590016 0.13541918 0.03669414 -0.011958793
0000e0 4b 12 40 be 64 48 4f 3d d8 e6 0b 3d 74 b0 10 bd
       -0.18756978 0.050606146 0.034155697 -0.03532453
0000f0 67 ac 02 3e 40 cc 17 3d f8 a5 4a be 72 26 d1 3d
       0.12761079 0.037060022 -0.19789875 0.10212411
000100 aa 88 25 be 48 f1 4f bd 3a f1 ab bd 48 fe 27 bd
       -0.16165414 -0.050767213 -0.0839562 -0.041013986
000110 de 4a e4 3d 10 b6 9f 3c e9 d9 1f 3e 7b 9e 3d be
       0.11147092 0.019495994 0.1561047 -0.18517487
000120 56 b5 29 be 52 61 b3 3d c9 1d 0e 3e ae b5 11 be
       -0.1657308 0.08758797 0.1387855 -0.14229462
000130 1d ce 3c 3e 92 82 b8 3d 69 0a 41 3e ad 5e 4c be
       0.18438001 0.09009279 0.18851627 -0.19957991
000140 60 70 15 3d 7d ad 3b be 7e 89 d1 3d 70 27 c7 bc
       0.036484122 -0.183279 0.10231303 -0.024310797
000150 18 18 16 bd 80 ee 03 bd 1a 09 1f be d0 b4 1e be
       -0.03664407 -0.032209873 -0.15530816 -0.15498662
000160 14 fa 8b bd d8 da c7 bc 5f e2 26 3e 89 f3 35 3e
       -0.06834808 -0.024396345 0.16297291 0.17768683
000170 59 22 13 3e 27 11 1f 3e c7 28 12 3e 71 21 11 3e
       0.14368571 0.15533887 0.14273368 0.14172913
000180 8c dc 30 bd 80 aa 19 3b 7c ec 89 bd f7 d5 f4 bd
       -0.04317908 0.0023447573 -0.06734559 -0.11954873
000190 d4 c6 80 bd 98 5a 35 3d 40 26 cc bc 3e 9a af 3d
       -0.062879235 0.04427585 -0.024920583 0.08574341
0001a0 a4 19 5c 3d cb 37 2b 3e 2a 48 cf 3d cf 22 35 be
       0.05373539 0.16720502 0.10121186 -0.1768906
0001b0 64 ea 58 3d 55 4e 1d be b5 2d 41 3e 33 8f 0f be
       0.052957907 -0.15361913 0.18865092 -0.1401947
0001c0 e8 46 b0 3c a0 87 10 bc b0 a2 cc bd 38 54 00 bd
       0.021518186 -0.008821398 -0.09991968 -0.031330317
0001d0 04 ab 4f 3d fa 3f eb 3d d2 45 ae 3d 1d de 33 be
       0.050700203 0.11486812 0.08509411 -0.17565198
0001e0 15 ec 37 be 98 44 49 3d a8 07 b4 3c 99 c4 06 3e
       -0.17961152 0.04913768 0.021976307 0.13160934
0001f0 c0 66 22 bb f9 62 1d 3e 81 3a 21 3e fd 57 34 be
       -0.0024780482 0.15369786 0.15744974 -0.1761169
000200 76 a6 84 bd 34 c5 50 bd 40 1f 06 3d 7a e8 89 3d
       -0.064770624 -0.050969318 0.032744646 0.067337945
000210 7a f8 dd 3d ac 16 3d bd 2c 14 5a bd a8 30 c8 bc
       0.10838409 -0.0461642 -0.053241894 -0.024437264
000220 20 59 ec bd ba d8 86 bd 66 c4 f8 3d b3 41 38 3e
       -0.11540437 -0.06584306 0.12146835 0.17993812
000230 84 1f 5b 3d c1 21 1b 3e 75 13 0d 3e b9 e5 2e 3e
       0.053496853 0.15149595 0.13776954 0.1707982
000240 6b d9 3f 3e 45 38 25 be 7a 84 18 be ae 98 fd 3d
       0.18735282 -0.16134746 -0.14894286 0.12382637
000250 3d c5 ea bd a7 e7 ea bd 1a 63 fa 3d ca ea d5 3d
       -0.114634015 -0.114699654 0.122259334 0.10445173
000260 15 af 30 be 53 3b 38 be cc 9a 16 3d fa 17 a4 3d
       -0.17254288 -0.1799138 0.03676872 0.08012386
000270 68 8b c5 bc 60 2d a3 3b c1 8a 30 3e 4d a2 1e 3e
       -0.024114326 0.0049797744 0.1724043 0.154916
000280 10 f3 cc bd f7 07 9c bd 8a f7 90 3d b4 7f 48 3d
       -0.10007298 -0.07618707 0.07078464 0.048949912
000290 85 ae 40 be 8c 2d 78 3d ac d5 32 bd 91 60 3d 3e
       -0.18816574 0.060590312 -0.043660805 0.18493868
0002a0 5c c4 91 bd 49 58 39 3e 0a 38 4c be 00 32 b4 3b
       -0.07117531 0.18100084 -0.19943252 0.0054991245
0002b0 ad 94 23 3e f2 d3 ab 3d a1 61 1d 3e e3 d4 fd bd
       0.15974684 0.08390035 0.15369274 -0.123941205
0002c0 28 12 e5 3c 00 4c ed bb 40 6c e2 bd 78 bc 19 3d
       0.02796276 -0.007241726 -0.11055803 0.037533253
0002d0 06 2c 20 be e4 3f 8b bd 28 42 ab 3c ad 07 c1 bd
       -0.15641794 -0.067992955 0.02090557 -0.09425292
0002e0 58 e1 c9 3c 72 c8 81 3d 32 ce 27 be ec ba 7c bd
       0.024643585 0.0633706 -0.16387251 -0.0617017
0002f0 b9 58 31 3e 50 44 65 bc f0 76 f8 3c 6f af 44 3e
       0.17319001 -0.013993338 0.030330151 0.19207548
000300 c4 c7 01 be 30 aa 55 3c a7 7b fd bd ca a7 2e be
       -0.12673861 0.013041064 -0.123771004 -0.17056194
000310 da 3b fd bd d2 cc c4 3d 7b d7 17 3e 9d 7f ba bd
       -0.123649314 0.09609379 0.14828293 -0.091063716
000320 1f be 3a 3e ff 07 00 3e a4 f9 80 bd 3f 0b 0a 3e
       0.18236588 0.1250305 -0.06297615 0.13480853
000330 18 9c 9d 3c b2 c8 a2 3d 8c d7 29 bd ef 33 43 be
       0.01923947 0.07948436 -0.041465327 -0.1906278
000340 ae 03 27 be 7a d2 c5 bd 79 65 18 3e 5b d8 37 3e
       -0.16309997 -0.09659286 0.14882459 0.17953627
000350 54 f6 49 bd 67 2b dc bd c2 3a 01 be ce 9c 12 be
       -0.049307182 -0.10750466 -0.1262007 -0.14317629
000360 e0 02 0e 3d 31 d8 20 3e d8 54 ba 3c f2 e9 ba 3d
       0.03467071 0.1570747 0.022745535 0.09126653
000370 60 40 6a bd c0 3b 23 3d 9e dd 26 be 53 c5 1d be
       -0.0571903 0.039851904 -0.16295478 -0.15407304
000380 4a c6 d5 3d 7a 69 49 be f4 a5 6e 3d 75 c7 49 3e
       0.10438211 -0.19669142 0.058263734 0.19704993
000390 a8 fb fc 3c c7 f1 14 3e dd bd 39 be 8d 02 a6 bd
       0.030881718 0.14545356 -0.18138833 -0.08105955
0003a0 28 ed 19 be 45 c7 1a be 0d 70 a8 bd fd c0 d0 bd
       -0.15031874 -0.15115078 -0.08224497 -0.101930596
0003b0 98 84 13 be 6a 23 4c be 90 b3 fd bc 7a 0a 89 bd
       -0.14406049 -0.19935384 -0.030969411 -0.06691451
0003c0 a0 eb a2 bb ae 9b df 3d 00 d1 19 3d 8d fa a3 bd
       -0.0049719363 0.109183654 0.037552834 -0.08006773
0003d0 ac 59 02 3d 98 af 16 3d 11 40 22 3e f3 4e 05 3e
       0.0318238 0.036788553 0.15844752 0.13018398
0003e0 05 46 2a 3e 28 c6 17 bd dd 4a 30 3e 66 87 90 bd
       0.16628273 -0.03705421 0.17216058 -0.07057075
0003f0 be d4 1d be 00 07 d0 3b 38 57 15 be 0c 50 24 bd
       -0.15413186 0.0063484907 -0.14584053 -0.0401154

FeatureModel.gru.bias_ih_l0 f4 [75]
000000 4a e6 c8 3d c8 63 31 be 90 1e f1 3c 14 a4 49 bd
       0.09809549 -0.1732322 0.029433519 -0.049228743
000010 ad 0e 37 3e dc 88 98 bd c0 f1 51 bd 70 5d e5 bd
       0.17876692 -0.07447979 -0.05125594 -0.111994624
000020 a0 3d 36 3d 00 0a a1 b9 c1 19 3a 3e ac b7 21 bd
       0.044492364 -0.00030715764 0.18173887 -0.039481804
000030 67 97 1c 3e 70 b6 d5 bc d2 fa 3a be a8 15 03 be
       0.1529213 -0.02608797 -0.18259743 -0.1280123
000040 48 e3 38 3d e3 80 3e 3e 5a 17 d8 bd f8 7b 65 bd
       0.045138627 0.18603854 -0.10551329 -0.05602643
000050 68 3b a8 bc 50 81 74 bc 03 c2 3a 3e 36 cd 89 bd
       -0.02053614 -0.014923409 0.18238072 -0.06728594
000060 c8 48 0e be ac 72 12 3d 9a e5 99 bd f0 9b bd 3c
       -0.13894951 0.03575389 -0.07514496 0.023145646
000070 20 91 2a 3d ae 42 e5 3d 0c 3b 78 3d 57 98 4a 3e
       0.04164231 0.11194359 0.060603186 0.19784676
000080 ad fb 00 be a9 f7 2d 3e f3 15 34 3e 53 0e a1 bd
       -0.12596007 0.16989006 0.17586498 -0.0786406
000090 b1 c4 0e 3e 45 14 0d be 00 c6 f5 3b d0 bd c5 bd
       0.1394222 -0.13777263 0.00750041 -0.096553445
0000a0 d9 96 47 3e 54 eb 4d 3d 60 a6 d5 3b 32 c1 42 be
       0.19491138 0.050273255 0.0065200776 -0.1901901
0000b0 00 a8 1a 39 1f a3 2d be 30 6f e2 bd 9a ef 85 bd
       0.0001474917 -0.16956757 -0.110563636 -0.06539841
0000c0 1a c6 da bd ea 8f d7 bd 6e 87 95 3d 82 63 af 3d
       -0.10682316 -0.10525496 0.07301222 0.085639015
0000d0 14 c1 22 bd ea a7 bb 3d 30 84 af bc d3 24 32 be
       -0.039734915 0.091628864 -0.021425337 -0.1739686
0000e0 55 48 17 3e a3 2f 25 be c1 ea 2a 3e 46 49 c2 3d
       0.14773686 -0.16131453 0.16691114 0.09486632
0000f0 54 bc 43 bd c0 1e 0a bb 51 7f 27 3e 63 8b 43 be
       -0.047787026 -0.0021075457 0.16357161 -0.1909614
000100 30 d0 79 bc ce 45 9b 3d b6 06 a4 3d 40 a5 dc bc
       -0.01524739 0.075816736 0.080090925 -0.026934266
000110 7a fc a1 3d d0 ac c2 bc 09 55 23 3e b2 fd f0 3d
       0.07909484 -0.023764044 0.15950407 0.117671385
000120 f9 39 15 3e 43 d6 b4 bd 47 11 0c 3e
       0.14572896 -0.0882993 0.13678466

FeatureModel.gru.bias_hh_l0 f4 [75]
000000 cc 32 4b 3d f8 be 0b 3d 2d 27 03 be 7d c6 09 be
       0.04960899 0.03411767 -0.12807913 -0.13454624
000010 95 17 39 3e 3e 08 a8 3d 57 78 a5 bd da ee 92 bd
       0.18075402 0.08204697 -0.08079594 -0.071744636
000020 cd 59 a2 bd 88 df 15 be d4 73 04 be ba bb d6 bd
       -0.079272844 -0.14636052 -0.1293481 -0.10485025
000030 0a d8 2b be 6b 58 44 3e 94 49 80 bd 07 72 0a 3e
       -0.16781631 0.19174354 -0.06264034 0.1352006
000040 dd 8e e6 bd d8 99 b8 3c f8 d6 77 bd 95 d2 06 3e
       -0.11257718 0.022534296 -0.060507745 0.13166268
000050 ca 19 c0 3d d8 8b 68 bd 79 08 25 3e a0 f7 eb 3b
       0.09379919 -0.05677399 0.16116513 0.00720115
000060 d3 80 e3 bd 4e 5a ca 3d 5c 1e 74 3d 32 a4 d7 3d
       -0.11108556 0.098805055 0.059599265 0.10529365
000070 c7 76 a7 bd 32 d8 ef 3d 18 b3 98 bc a9 a6 01 3e
       -0.08176952 0.11711158 -0.018640086 0.12661232
000080 34 27 16 bd 8c 6b 7d bd 6b f8 45 3e d8 ed 57 bd
       -0.03665848 -0.061870143 0.19333045 -0.05271706
000090 0b 3f 3f 3e 69 d2 3b 3e b0 24 e9 bc 12 d3 b2 3d
       0.18676393 0.18341984 -0.028459877 0.08731665
0000a0 8a cd 35 be cc c6 43 bd 3a 2f 93 3d b0 ae 89 bd
       -0.17754188 -0.04779701 0.07186742 -0.06722772
0000b0 80 07 17 bc 09 99 13 3e a0 ad 39 3c b3 6c 34 3e
       -0.009218097 0.14413847 0.011332899 0.1761959
0000c0 c8 ae 15 bd 30 a2 1a be 66 83 eb 3d 37 41 ec bd
       -0.036543638 -0.15100932 0.11499672 -0.11535876
0000d0 c2 7c 80 3d 40 bb ca bc 5d c2 29 3e 52 80 24 be
       0.06273796 -0.02474749 0.1657805 -0.16064575
0000e0 48 76 55 bd b8 ed 2b be c9 e2 07 3e f2 d9 9e 3d
       -0.052114755 -0.16789901 0.13270105 0.077564135
0000f0 73 1e 28 3e 18 13 71 bd a8 88 27 3d 1a 5f ff 3d
       0.16417865 -0.0588561 0.04090181 0.12469311
000100 83 c2 10 be 07 1c 47 be e0 cf 10 be 02 46 ff 3d
       -0.141367 -0.19444285 -0.14141798 0.12464525
000110 79 2a 4b 3e 68 31 99 bc e0 aa 41 be d0 f4 b1 3c
       0.19840421 -0.018700317 -0.1891284 0.021723181
000120 62 5c f8 3d 51 49 1c 3e c2 c6 87 3d
       0.121269956 0.15262343 0.06629707

hidden1.weight f4 [25, 25]
000000 8d 73 f9 bd 50 c1 2e be 8d 37 b4 bd a8 a9 f5 bc
       -0.12180243 -0.1706593 -0.08799658 -0.029988125
000010 78 21 31 3d 55 cb 2e be 28 64 37 3d 90 6d d6 bc
       0.04324481 -0.17069753 0.04477325 -0.02617529
000020 8d f4 af bd 1d eb a5 bd 90 f6 f4 3c 27 8f d3 bd
       -0.08591566 -0.08101485 0.029902726 -0.103300385
000030 78 5b 6b bd b0 88 49 be 56 a4 e4 3d 71 a4 32 3e
       -0.05746028 -0.19681048 0.11164157 0.17445542
000040 c2 f7 b0 3d 82 2c 8d 3d 7a ec e2 3d e8 8a 33 bd
       0.08641006 0.06893255 0.110802606 -0.043833643
000050 4c 1d 43 bd 0b 75 20 3e f8 e6 4e bd 00 a9 7a bd
       -0.04763536 0.15669648 -0.050513238 -0.061196327
000060 d5 43 22 3e 03 a3 e7 bd 85 91 2c be 96 74 cb 3d
       0.15846188 -0.11310389 -0.16852386 0.099343464
000070 e0 ea 47 3d 6c 61 61 bd 4d 0b 01 be 4a fd d6 3d
       0.04880798 -0.05502455 -0.12601967 0.1049753
000080 a8 ee 08 3d 7b b3 07 3e 0c 88 61 3d 6e c2 0f be
       0.033430725 0.1325206 0.055061385 -0.14039013
000090 c0 7d 88 3c ec fd 74 bd 2e 9f b5 3d a0 76 18 3c
       0.016661525 -0.05981247 0.08868252 0.009305626
0000a0 80 4f d0 bd 02 1e ac 3d 88 3f 27 be e3 29 1a 3e
       -0.101714134 0.08404161 -0.16332829 0.15055041
0000b0 ba 8e d8 bd 07 4d f2 bd 33 a0 b9 bd e5 ad 10 3e
       -0.10574098 -0.11831098 -0.09063759 0.14128835
0000c0 50 c1 40 be 39 d3 0d 3e 70 45 21 be fa 9a b4 3d
       -0.18823743 0.13850106 -0.15749145 0.08818622
0000d0 53 21 fa bd d2 17 1f be e3 4b 12 3e a0 cd 01 bc
       -0.12213387 -0.1553643 0.14286761 -0.00792256
0000e0 b8 e3 53 bd 60 50 33 bd b4 e1 6e bd 83 0a fa bd
       -0.05173084 -0.043777823 -0.058320716 -0.12209036
0000f0 c5 bf 06 be 00 ae 61 ba a6 45 bd 3d 14 1f 01 bd
       -0.13159092 -0.0008608997 0.092418 -0.03152378
000100 2e 5d c4 3d 49 d4 1e 3e 76 44 03 be 0c d6 05 bd
       0.09588085 0.15510668 -0.12819085 -0.032674834
000110 b0 87 0d bc fc ce 02 be ea 38 bd bd cd de 49 3e
       -0.008638307 -0.12774271 -0.09239371 0.19713898
000120 58 3c c1 3c d8 e5 e8 3c 4b e9 47 3e 04 ad 8f bd
       0.023588344 0.02842991 0.19522588 -0.07015422
000130 04 9b 8f bd d0 d6 15 3c aa 66 e5 bd 80 48 43 bb
       -0.07011989 0.009145454 -0.11201222 -0.0029797852
000140 d3 38 0b 3e 10 d6 17 be 88 bc 47 3d 39 e3 2c 3e
       0.13595895 -0.14827752 0.04876378 0.16883554
000150 e6 2f 0f be 28 1e ed bc d6 22 cf 3d 34 f7 07 3d
       -0.13983116 -0.028945044 0.10114066 0.033194736
000160 ca 88 cb 3d 6c 8e 40 bd 80 ed f2 bc db 2f 1f be
       0.099382 -0.047010824 -0.029654264 -0.15545599
000170 6d 72 bb bd d3 05 0d be 33 dd 3d 3e ea a7 dd bd
       -0.09152684 -0.13771753 0.18541412 -0.10823043
000180 36 8a c8 3d 3a d3 8a 3d f2 7a 21 be 60 af a6 bb
       0.09791987 0.067785695 -0.15769556 -0.0050868243
000190 25 58 1f 3e 44 44 4e 3d 0d 45 3b 3e 63 ed a8 bd
       0.15560968 0.050358072 0.1828806 -0.08248403
0001a0 7d 2a 26 be 0d 57 f1 bd fe 7b 22 be 3f 93 43 be
       -0.16227145 -0.11784182 -0.15867612 -0.19099139
0001b0 3d 96 db bd 40 39 d4 bd 32 a2 47 be 14 19 20 3d
       -0.10722015 -0.10362482 -0.19495466 0.039086416
0001c0 10 07 98 bd bd 73 f2 bd 20 cf f9 bd 5f 8c 4c be
       -0.07423222 -0.118384816 -0.12197709 -0.19975422
0001d0 e0 52 6d bc 05 cb 35 3e 9d 00 26 3e 51 72 18 3e
       -0.014485091 0.17753227 0.16211171 0.14887358
0001e0 d5 47 46 be b7 b9 3b 3e 32 89 26 be c0 36 34 bd
       -0.19363339 0.18332563 -0.16263273 -0.043997526
0001f0 33 b1 c6 bd 00 2f c3 ba 27 99 43 be 5e a5 2c be
       -0.09701767 -0.0014891326 -0.19101392 -0.16859958
000200 c6 a1 a6 3d 5f 98 3b be 4d 45 39 3e 87 5e e3 bd
       0.081363246 -0.18319844 0.18092842 -0.11102014
000210 10 00 a2 bc 50 3d 47 bc 53 6d a0 bd 02 89 e1 3d
       -0.01977542 -0.012160614 -0.07833352 0.1101246
000220 5d cd 1f be f9 67 2c 3e 40 43 97 bd 17 4c e5 bd
       -0.15605684 0.16836537 -0.07385874 -0.111961536
000230 d8 a9 7b bd e0 d6 15 3c 0d 21 47 be 2a 91 40 be
       -0.061441272 0.0091454685 -0.19446202 -0.18805376
000240 54 82 96 bd 48 19 20 be 92 16 34 be a8 59 39 be
       -0.07349077 -0.15634644 -0.17586735 -0.18100607
000250 19 52 46 3e 9d 6b a2 bd 04 ee 07 be 30 6b c0 3c
       0.19367255 -0.07930682 -0.1327439 0.023488611
000260 00 ad 63 3c 96 6c a0 3d 1a db 0c be f4 90 5f 3d
       0.013896227 0.07833211 -0.13755456 0.054581597
000270 82 59 d5 3d 90 c8 96 bc 84 a5 50 3d c5 8f 25 be
       0.10417463 -0.018406183 0.050939098 -0.16168125
000280 6d ed 1b be 27 ee d7 bd c0 26 70 3b 70 7d 94 3c
       -0.1522729 -0.10543471 0.003664419 0.01812622
000290 18 05 32 bd fa 90 eb 3d e0 36 46 be 6b 3a 38 3e
       -0.04346189 0.115022615 -0.1935687 0.17991035
0002a0 e0 d3 db bd a7 42 b2 bd 49 b4 18 3e ec c3 3c bd
       -0.10733771 -0.08704119 0.14912523 -0.046085283
0002b0 68 68 bd 3c b0 36 3e bc 05 bb 35 3e 4e 49 d4 3d
       0.023121074 -0.011609718 0.17747124 0.10365544
0002c0 bf 79 35 3e 00 7a b0 3b da b0 1a be 28 2f e4 3c
       0.17722224 0.0053856373 -0.15106526 0.027854517
0002d0 50 14 2d 3c 42 1c c5 3d b2 3b ba 3d 3d cb 04 3e
       0.010563925 0.096245304 0.09093417 0.12968154
0002e0 00 82 18 3b b0 d7 9a bc 64 a0 5b 3d 76 08 95 3d
       0.0023270845 -0.018901676 0.053619757 0.072770044
0002f0 42 e6 a2 3d c0 e5 f8 bb 4a ad fb 3d f0 28 a8 bc
       0.079540744 -0.0075957477 0.12288912 -0.020527333
000300 8d 63 b5 bd 50 85 23 3c 35 7c 31 be 83 e7 1f be
       -0.088568784 0.009980515 -0.17332537 -0.15615658
000310 2c f4 6f 3d e5 f8 32 3e b0 78 26 be 33 f7 0a 3e
       0.05858247 0.17477758 -0.16256976 0.13570862
000320 f0 70 93 3c 18 8f d2 3c c2 49 c4 3d 71 ff 26 3e
       0.017998189 0.025702998 0.09584381 0.1630838
000330 94 90 45 3d a5 c3 27 3e d0 b2 ca bc 32 ce f1 3d
       0.048233584 0.16383226 -0.024743468 0.11806907
000340 98 38 16 3d 58 36 48 3d 1a 61 82 bd a9 53 00 3e
       0.036675066 0.04887995 -0.06366177 0.12531914
000350 7a eb 8e bd aa 30 fc bd d8 87 08 bd 63 8a 02 3e
       -0.06978507 -0.123139694 -0.033332676 0.12748103
000360 60 61 07 3d 69 ca 19 3e 70 4c f8 3c 0d 09 12 be
       0.03305185 0.1501862 0.030309886 -0.14261265
000370 a8 1c e5 bc c0 1d f5 bc 02 3b 92 3d d0 65 a1 bc
       -0.027967766 -0.029921412 0.07140161 -0.019701868
000380 66 e0 92 bd 40 45 c4 3b 46 4a c1 3d 70 74 84 3c
       -0.07171707 0.0059897006 0.09437995 0.016168803
000390 53 6c c4 bd 90 14 8b bd c0 a5 1d 3d 77 57 f7 bd
       -0.09590974 -0.06791031 0.03848815 -0.120772295
0003a0 94 64 1b bd a8 09 4d bd a7 87 ba bd 98 2e 15 3d
       -0.037937716 -0.050058037 -0.09107905 0.03642139
0003b0 ca 65 90 3d 1d e1 b4 bd b4 a0 3f bd 27 7b 07 3e
       0.07050665 -0.088319995 -0.046784118 0.13230573
0003c0 f3 01 d4 bd b2 9d f1 3d 08 87 10 3d 99 91 2b 3e
       -0.10351934 0.11797656 0.035285026 0.1675476
0003d0 fd 82 11 3e c8 36 22 be ba 3d ea 3d ed a9 36 3e
       0.14210124 -0.1584121 0.11437555 0.17838259
0003e0 0e 1b ef 3d b0 54 b1 3c 30 ba 6f bc 7b 26 46 3e
       0.11675082 0.021646827 -0.014631793 0.19350617
0003f0 ab e4 33 3e 00 a0 9d 3c 46 3f c6 3d 20 89 5a bc
       0.17567699 0.019241333 0.09680037 -0.013338357

hidden1.bias f4 [25]
000000 0a f0 91 3d b3 71 f1 bd f1 92 26 3e dd 07 20 3e
       0.07125862 -0.117892645 0.16266991 0.15628
000010 60 8a cb bd 69 f3 25 3e 00 ac e3 3b 91 f5 49 3e
       -0.09938502 0.16206135 0.006947994 0.19722582
000020 98 9c 65 bd 93 c7 f8 bd 96 ab 88 bd c0 db d0 bb
       -0.056057543 -0.12147441 -0.066733524 -0.0063738525
000030 12 d4 9f 3d 80 4e fb 3c 4e 9f db 3d 51 37 2d 3e
       0.07804121 0.03067708 0.10723744 0.16915633
000040 00 78 33 3b 30 2b b5 3c 38 d3 2c 3d 50 c1 c3 3c
       0.0027384758 0.02211532 0.04219362 0.02389589
000050 b5 95 0f be e8 54 3a 3d 50 1e c8 bc 10 7a 04 be
       -0.14021952 0.04549113 -0.024428517 -0.12937188
000060 be 43 99 3d
       0.07483624
